      (0): norm_data(
        (bn): BatchNorm1d(75, eps=1e-05, momentum=0.1, affine=True, track_running_stats=True)
      )
      (1): cnn1x1(
        (cnn): Conv2d(3, 64, kernel_size=(1, 1), stride=(1, 1))
      )
      (2): ReLU()
      (3): cnn1x1(
        (cnn): Conv2d(64, 64, kernel_size=(1, 1), stride=(1, 1))
      )
      (4): ReLU()
    )
  )
  (maxpool): AdaptiveMaxPool2d(output_size=(1, 1))
  (cnn): local(
    (maxpool): AdaptiveMaxPool2d(output_size=(1, 20))
    (cnn1): Conv2d(256, 256, kernel_size=(1, 3), stride=(1, 1), padding=(0, 1))
    (bn1): BatchNorm2d(256, eps=1e-05, momentum=0.1, affine=True, track_running_stats=True)
    (relu): ReLU()
    (cnn2): Conv2d(256, 512, kernel_size=(1, 1), stride=(1, 1))
    (bn2): BatchNorm2d(512, eps=1e-05, momentum=0.1, affine=True, track_running_stats=True)
    (dropout): Dropout2d(p=0.2, inplace=False)
  )
  (compute_g1): compute_g_spa(
    (g1): cnn1x1(
      (cnn): Conv2d(128, 256, kernel_size=(1, 1), stride=(1, 1))
    )
    (g2): cnn1x1(
      (cnn): Conv2d(128, 256, kernel_size=(1, 1), stride=(1, 1))
    )
    (softmax): Softmax(dim=-1)
  )
  (gcn1): gcn_spa(
    (bn): BatchNorm2d(128, eps=1e-05, momentum=0.1, affine=True, track_running_stats=True)
    (relu): ReLU()
    (w): cnn1x1(
      (cnn): Conv2d(128, 128, kernel_size=(1, 1), stride=(1, 1), bias=False)
    )
    (w1): cnn1x1(
      (cnn): Conv2d(128, 128, kernel_size=(1, 1), stride=(1, 1))
    )
  )
  (gcn2): gcn_spa(
    (bn): BatchNorm2d(256, eps=1e-05, momentum=0.1, affine=True, track_running_stats=True)
    (relu): ReLU()
    (w): cnn1x1(
      (cnn): Conv2d(128, 256, kernel_size=(1, 1), stride=(1, 1), bias=False)
    )
    (w1): cnn1x1(
      (cnn): Conv2d(128, 256, kernel_size=(1, 1), stride=(1, 1))
    )
  )
  (gcn3): gcn_spa(
    (bn): BatchNorm2d(256, eps=1e-05, momentum=0.1, affine=True, track_running_stats=True)
    (relu): ReLU()
    (w): cnn1x1(
      (cnn): Conv2d(256, 256, kernel_size=(1, 1), stride=(1, 1), bias=False)
    )
    (w1): cnn1x1(
      (cnn): Conv2d(256, 256, kernel_size=(1, 1), stride=(1, 1))
    )
  )
  (fc): Linear(in_features=512, out_features=2, bias=True)
)
The number of parameters:  661550
The modes is: SGN
It is using GPU!
Train on 1369 samples, validate on 343 samples
0 0.001
Backend qtagg is interactive backend. Turning interactive mode on.
Backend qtagg is interactive backend. Turning interactive mode on.
Backend qtagg is interactive backend. Turning interactive mode on.
Backend qtagg is interactive backend. Turning interactive mode on.
…
Backend qtagg is interactive backend. Turning interactive mode on.
Backend qtagg is interactive backend. Turning interactive mode on.
Backend qtagg is interactive backend. Turning interactive mode on.
(base) louiemiddle@HEI-WINalNumber:~/SGN$ ^C

(base) louiemiddle@HEI-WINalNumber:~/SGN$  cd /home/louiemiddle/SGN ; /usr/bin/env /home/louiemiddle/anaconda3/bin/python /home/louiemiddle/.vscode-server/extensions/ms-python.debugpy-2024.14.0-linux-x64/bundled/libs/debugpy/adapter/../../debugpy/launcher 34943 -- /home/louiemiddle/SGN/main.py 
SGN(
  (tem_embed): embed(
    (cnn): Sequential(
      (0): cnn1x1(
        (cnn): Conv2d(20, 64, kernel_size=(1, 1), stride=(1, 1))
      )
      (1): ReLU()
      (2): cnn1x1(
        (cnn): Conv2d(64, 256, kernel_size=(1, 1), stride=(1, 1))
      )
      (3): ReLU()
    )
  )
  (spa_embed): embed(
    (cnn): Sequential(
      (0): cnn1x1(
        (cnn): Conv2d(29, 64, kernel_size=(1, 1), stride=(1, 1))
      )
      (1): ReLU()
      (2): cnn1x1(
        (cnn): Conv2d(64, 64, kernel_size=(1, 1), stride=(1, 1))
      )
      (3): ReLU()
    )
  )
  (joint_embed): embed(
    (cnn): Sequential(
      (0): norm_data(
        (bn): BatchNorm1d(75, eps=1e-05, momentum=0.1, affine=True, track_running_stats=True)
      )
      (1): cnn1x1(
        (cnn): Conv2d(3, 64, kernel_size=(1, 1), stride=(1, 1))
      )
      (2): ReLU()
      (3): cnn1x1(
        (cnn): Conv2d(64, 64, kernel_size=(1, 1), stride=(1, 1))
      )
      (4): ReLU()
    )
  )
  (dif_embed): embed(
    (cnn): Sequential(
      (0): norm_data(
        (bn): BatchNorm1d(75, eps=1e-05, momentum=0.1, affine=True, track_running_stats=True)
      )
      (1): cnn1x1(
        (cnn): Conv2d(3, 64, kernel_size=(1, 1), stride=(1, 1))
      )
      (2): ReLU()
      (3): cnn1x1(
        (cnn): Conv2d(64, 64, kernel_size=(1, 1), stride=(1, 1))
      )
      (4): ReLU()
    )
  )
  (maxpool): AdaptiveMaxPool2d(output_size=(1, 1))
  (cnn): local(
    (maxpool): AdaptiveMaxPool2d(output_size=(1, 20))
    (cnn1): Conv2d(256, 256, kernel_size=(1, 3), stride=(1, 1), padding=(0, 1))
    (bn1): BatchNorm2d(256, eps=1e-05, momentum=0.1, affine=True, track_running_stats=True)
    (relu): ReLU()
    (cnn2): Conv2d(256, 512, kernel_size=(1, 1), stride=(1, 1))
    (bn2): BatchNorm2d(512, eps=1e-05, momentum=0.1, affine=True, track_running_stats=True)
    (dropout): Dropout2d(p=0.2, inplace=False)
  )
  (compute_g1): compute_g_spa(
    (g1): cnn1x1(
      (cnn): Conv2d(128, 256, kernel_size=(1, 1), stride=(1, 1))
    )
    (g2): cnn1x1(
      (cnn): Conv2d(128, 256, kernel_size=(1, 1), stride=(1, 1))
    )
    (softmax): Softmax(dim=-1)
  )
  (gcn1): gcn_spa(
    (bn): BatchNorm2d(128, eps=1e-05, momentum=0.1, affine=True, track_running_stats=True)
    (relu): ReLU()
    (w): cnn1x1(
      (cnn): Conv2d(128, 128, kernel_size=(1, 1), stride=(1, 1), bias=False)
    )
    (w1): cnn1x1(
      (cnn): Conv2d(128, 128, kernel_size=(1, 1), stride=(1, 1))
    )
  )
  (gcn2): gcn_spa(
    (bn): BatchNorm2d(256, eps=1e-05, momentum=0.1, affine=True, track_running_stats=True)
    (relu): ReLU()
    (w): cnn1x1(
      (cnn): Conv2d(128, 256, kernel_size=(1, 1), stride=(1, 1), bias=False)
    )
    (w1): cnn1x1(
      (cnn): Conv2d(128, 256, kernel_size=(1, 1), stride=(1, 1))
    )
  )
  (gcn3): gcn_spa(
    (bn): BatchNorm2d(256, eps=1e-05, momentum=0.1, affine=True, track_running_stats=True)
    (relu): ReLU()
    (w): cnn1x1(
      (cnn): Conv2d(256, 256, kernel_size=(1, 1), stride=(1, 1), bias=False)
    )
    (w1): cnn1x1(
      (cnn): Conv2d(256, 256, kernel_size=(1, 1), stride=(1, 1))
    )
  )
  (fc): Linear(in_features=512, out_features=2, bias=True)
)
The number of parameters:  661550
The modes is: SGN
It is using GPU!
Train on 1369 samples, validate on 343 samples
0 0.001
Backend qtagg is interactive backend. Turning interactive mode on.
(base) louiemiddle@HEI-WINalNumber:~/SGN$ ^C

(base) louiemiddle@HEI-WINalNumber:~/SGN$  cd /home/louiemiddle/SGN ; /usr/bin/env /home/louiemiddle/anaconda3/bin/python /home/louiemiddle/.vscode-server/extensions/ms-python.debugpy-2024.14.0-linux-x64/bundled/libs/debugpy/adapter/../../debugpy/launcher 35639 -- /home/louiemiddle/SGN/main.py 
SGN(
  (tem_embed): embed(
    (cnn): Sequential(
      (0): cnn1x1(
        (cnn): Conv2d(20, 64, kernel_size=(1, 1), stride=(1, 1))
      )
      (1): ReLU()
      (2): cnn1x1(
        (cnn): Conv2d(64, 256, kernel_size=(1, 1), stride=(1, 1))
      )
      (3): ReLU()
    )
  )
  (spa_embed): embed(
    (cnn): Sequential(
      (0): cnn1x1(
        (cnn): Conv2d(29, 64, kernel_size=(1, 1), stride=(1, 1))
      )
      (1): ReLU()
      (2): cnn1x1(
        (cnn): Conv2d(64, 64, kernel_size=(1, 1), stride=(1, 1))
      )
      (3): ReLU()
    )
  )
  (joint_embed): embed(
    (cnn): Sequential(
      (0): norm_data(
        (bn): BatchNorm1d(87, eps=1e-05, momentum=0.1, affine=True, track_running_stats=True)
      )
      (1): cnn1x1(
        (cnn): Conv2d(3, 64, kernel_size=(1, 1), stride=(1, 1))
      )
      (2): ReLU()
      (3): cnn1x1(
        (cnn): Conv2d(64, 64, kernel_size=(1, 1), stride=(1, 1))
      )
      (4): ReLU()
    )
  )
  (dif_embed): embed(
    (cnn): Sequential(
      (0): norm_data(
        (bn): BatchNorm1d(87, eps=1e-05, momentum=0.1, affine=True, track_running_stats=True)
      )
      (1): cnn1x1(
        (cnn): Conv2d(3, 64, kernel_size=(1, 1), stride=(1, 1))
      )
      (2): ReLU()
      (3): cnn1x1(
        (cnn): Conv2d(64, 64, kernel_size=(1, 1), stride=(1, 1))
      )
      (4): ReLU()
    )
  )
  (maxpool): AdaptiveMaxPool2d(output_size=(1, 1))
  (cnn): local(
    (maxpool): AdaptiveMaxPool2d(output_size=(1, 20))
    (cnn1): Conv2d(256, 256, kernel_size=(1, 3), stride=(1, 1), padding=(0, 1))
    (bn1): BatchNorm2d(256, eps=1e-05, momentum=0.1, affine=True, track_running_stats=True)
    (relu): ReLU()
    (cnn2): Conv2d(256, 512, kernel_size=(1, 1), stride=(1, 1))
    (bn2): BatchNorm2d(512, eps=1e-05, momentum=0.1, affine=True, track_running_stats=True)
    (dropout): Dropout2d(p=0.2, inplace=False)
  )
  (compute_g1): compute_g_spa(
    (g1): cnn1x1(
      (cnn): Conv2d(128, 256, kernel_size=(1, 1), stride=(1, 1))
    )
    (g2): cnn1x1(
      (cnn): Conv2d(128, 256, kernel_size=(1, 1), stride=(1, 1))
    )
    (softmax): Softmax(dim=-1)
  )
  (gcn1): gcn_spa(
    (bn): BatchNorm2d(128, eps=1e-05, momentum=0.1, affine=True, track_running_stats=True)
    (relu): ReLU()
    (w): cnn1x1(
      (cnn): Conv2d(128, 128, kernel_size=(1, 1), stride=(1, 1), bias=False)
    )
    (w1): cnn1x1(
      (cnn): Conv2d(128, 128, kernel_size=(1, 1), stride=(1, 1))
    )
  )
  (gcn2): gcn_spa(
    (bn): BatchNorm2d(256, eps=1e-05, momentum=0.1, affine=True, track_running_stats=True)
    (relu): ReLU()
    (w): cnn1x1(
      (cnn): Conv2d(128, 256, kernel_size=(1, 1), stride=(1, 1), bias=False)
    )
    (w1): cnn1x1(
      (cnn): Conv2d(128, 256, kernel_size=(1, 1), stride=(1, 1))
    )
  )
  (gcn3): gcn_spa(
    (bn): BatchNorm2d(256, eps=1e-05, momentum=0.1, affine=True, track_running_stats=True)
    (relu): ReLU()
    (w): cnn1x1(
      (cnn): Conv2d(256, 256, kernel_size=(1, 1), stride=(1, 1), bias=False)
    )
    (w1): cnn1x1(
      (cnn): Conv2d(256, 256, kernel_size=(1, 1), stride=(1, 1))
    )
  )
  (fc): Linear(in_features=512, out_features=2, bias=True)
)
The number of parameters:  661598
The modes is: SGN
It is using GPU!
Train on 1369 samples, validate on 343 samples
0 0.001
Backend qtagg is interactive backend. Turning interactive mode on.
(base) louiemiddle@HEI-WINalNumber:~/SGN$ ^C

(base) louiemiddle@HEI-WINalNumber:~/SGN$  cd /home/louiemiddle/SGN ; /usr/bin/env /home/louiemiddle/anaconda3/bin/python /home/louiemiddle/.vscode-server/extensions/ms-python.debugpy-2024.14.0-linux-x64/bundled/libs/debugpy/adapter/../../debugpy/launcher 47337 -- /home/louiemiddle/SGN/main.py 
SGN(
  (tem_embed): embed(
    (cnn): Sequential(
      (0): cnn1x1(
        (cnn): Conv2d(20, 64, kernel_size=(1, 1), stride=(1, 1))
      )
      (1): ReLU()
      (2): cnn1x1(
        (cnn): Conv2d(64, 256, kernel_size=(1, 1), stride=(1, 1))
      )
      (3): ReLU()
    )
  )
  (spa_embed): embed(
    (cnn): Sequential(
      (0): cnn1x1(
        (cnn): Conv2d(29, 64, kernel_size=(1, 1), stride=(1, 1))
      )
      (1): ReLU()
      (2): cnn1x1(
        (cnn): Conv2d(64, 64, kernel_size=(1, 1), stride=(1, 1))
      )
      (3): ReLU()
    )
  )
  (joint_embed): embed(
    (cnn): Sequential(
      (0): norm_data(
        (bn): BatchNorm1d(87, eps=1e-05, momentum=0.1, affine=True, track_running_stats=True)
      )
      (1): cnn1x1(
        (cnn): Conv2d(3, 64, kernel_size=(1, 1), stride=(1, 1))
      )
      (2): ReLU()
      (3): cnn1x1(
        (cnn): Conv2d(64, 64, kernel_size=(1, 1), stride=(1, 1))
      )
      (4): ReLU()
    )
  )
  (dif_embed): embed(
    (cnn): Sequential(
      (0): norm_data(
        (bn): BatchNorm1d(87, eps=1e-05, momentum=0.1, affine=True, track_running_stats=True)
      )
      (1): cnn1x1(
        (cnn): Conv2d(3, 64, kernel_size=(1, 1), stride=(1, 1))
      )
      (2): ReLU()
      (3): cnn1x1(
        (cnn): Conv2d(64, 64, kernel_size=(1, 1), stride=(1, 1))
      )
      (4): ReLU()
    )
  )
  (maxpool): AdaptiveMaxPool2d(output_size=(1, 1))
  (cnn): local(
    (maxpool): AdaptiveMaxPool2d(output_size=(1, 20))
    (cnn1): Conv2d(256, 256, kernel_size=(1, 3), stride=(1, 1), padding=(0, 1))
    (bn1): BatchNorm2d(256, eps=1e-05, momentum=0.1, affine=True, track_running_stats=True)
    (relu): ReLU()
    (cnn2): Conv2d(256, 512, kernel_size=(1, 1), stride=(1, 1))
    (bn2): BatchNorm2d(512, eps=1e-05, momentum=0.1, affine=True, track_running_stats=True)
    (dropout): Dropout2d(p=0.2, inplace=False)
  )
  (compute_g1): compute_g_spa(
    (g1): cnn1x1(
      (cnn): Conv2d(128, 256, kernel_size=(1, 1), stride=(1, 1))
    )
    (g2): cnn1x1(
      (cnn): Conv2d(128, 256, kernel_size=(1, 1), stride=(1, 1))
    )
    (softmax): Softmax(dim=-1)
  )
  (gcn1): gcn_spa(
    (bn): BatchNorm2d(128, eps=1e-05, momentum=0.1, affine=True, track_running_stats=True)
    (relu): ReLU()
    (w): cnn1x1(
      (cnn): Conv2d(128, 128, kernel_size=(1, 1), stride=(1, 1), bias=False)
    )
    (w1): cnn1x1(
      (cnn): Conv2d(128, 128, kernel_size=(1, 1), stride=(1, 1))
    )
  )
  (gcn2): gcn_spa(
    (bn): BatchNorm2d(256, eps=1e-05, momentum=0.1, affine=True, track_running_stats=True)
    (relu): ReLU()
    (w): cnn1x1(
      (cnn): Conv2d(128, 256, kernel_size=(1, 1), stride=(1, 1), bias=False)
    )
    (w1): cnn1x1(
      (cnn): Conv2d(128, 256, kernel_size=(1, 1), stride=(1, 1))
    )
  )
(base) louiemiddle@HEI-WINalNumber:~/SGN$ ^C

(base) louiemiddle@HEI-WINalNumber:~/SGN$  cd /home/louiemiddle/SGN ; /usr/bin/env /home/louiemiddle/anaconda3/bin/python /home/louiemiddle/.vscode-server/extensions/ms-python.debugpy-2024.14.0-linux-x64/bundled/libs/debugpy/adapter/../../debugpy/launcher 36925 -- /home/louiemiddle/SGN/main.py 
SGN(
  (tem_embed): embed(
    (cnn): Sequential(
      (0): cnn1x1(
        (cnn): Conv2d(20, 64, kernel_size=(1, 1), stride=(1, 1))
      )
      (1): ReLU()
      (2): cnn1x1(
        (cnn): Conv2d(64, 256, kernel_size=(1, 1), stride=(1, 1))
      )
      (3): ReLU()
    )
  )
  (spa_embed): embed(
    (cnn): Sequential(
      (0): cnn1x1(
        (cnn): Conv2d(29, 64, kernel_size=(1, 1), stride=(1, 1))
      )
      (1): ReLU()
      (2): cnn1x1(
        (cnn): Conv2d(64, 64, kernel_size=(1, 1), stride=(1, 1))
      )
      (3): ReLU()
    )
  )
  (joint_embed): embed(
    (cnn): Sequential(
      (0): norm_data(
        (bn): BatchNorm1d(87, eps=1e-05, momentum=0.1, affine=True, track_running_stats=True)
      )
      (1): cnn1x1(
        (cnn): Conv2d(3, 64, kernel_size=(1, 1), stride=(1, 1))
      )
      (2): ReLU()
      (3): cnn1x1(
        (cnn): Conv2d(64, 64, kernel_size=(1, 1), stride=(1, 1))
      )
      (4): ReLU()
    )
  )
  (dif_embed): embed(
    (cnn): Sequential(
      (0): norm_data(
        (bn): BatchNorm1d(87, eps=1e-05, momentum=0.1, affine=True, track_running_stats=True)
      )
      (1): cnn1x1(
        (cnn): Conv2d(3, 64, kernel_size=(1, 1), stride=(1, 1))
      )
      (2): ReLU()
      (3): cnn1x1(
        (cnn): Conv2d(64, 64, kernel_size=(1, 1), stride=(1, 1))
      )
      (4): ReLU()
    )
  )
  (maxpool): AdaptiveMaxPool2d(output_size=(1, 1))
  (cnn): local(
    (maxpool): AdaptiveMaxPool2d(output_size=(1, 20))
    (cnn1): Conv2d(256, 256, kernel_size=(1, 3), stride=(1, 1), padding=(0, 1))
    (bn1): BatchNorm2d(256, eps=1e-05, momentum=0.1, affine=True, track_running_stats=True)
    (relu): ReLU()
    (cnn2): Conv2d(256, 512, kernel_size=(1, 1), stride=(1, 1))
    (bn2): BatchNorm2d(512, eps=1e-05, momentum=0.1, affine=True, track_running_stats=True)
    (dropout): Dropout2d(p=0.2, inplace=False)
  )
  (compute_g1): compute_g_spa(
    (g1): cnn1x1(
      (cnn): Conv2d(128, 256, kernel_size=(1, 1), stride=(1, 1))
    )
    (g2): cnn1x1(
      (cnn): Conv2d(128, 256, kernel_size=(1, 1), stride=(1, 1))
    )
    (softmax): Softmax(dim=-1)
  )
  (gcn1): gcn_spa(
    (bn): BatchNorm2d(128, eps=1e-05, momentum=0.1, affine=True, track_running_stats=True)
    (relu): ReLU()
    (w): cnn1x1(
      (cnn): Conv2d(128, 128, kernel_size=(1, 1), stride=(1, 1), bias=False)
    )
    (w1): cnn1x1(
      (cnn): Conv2d(128, 128, kernel_size=(1, 1), stride=(1, 1))
    )
  )
  (gcn2): gcn_spa(
    (bn): BatchNorm2d(256, eps=1e-05, momentum=0.1, affine=True, track_running_stats=True)
    (relu): ReLU()
    (w): cnn1x1(
      (cnn): Conv2d(128, 256, kernel_size=(1, 1), stride=(1, 1), bias=False)
    )
    (w1): cnn1x1(
      (cnn): Conv2d(128, 256, kernel_size=(1, 1), stride=(1, 1))
    )
  )
  (gcn3): gcn_spa(
    (bn): BatchNorm2d(256, eps=1e-05, momentum=0.1, affine=True, track_running_stats=True)
    (relu): ReLU()
    (w): cnn1x1(
      (cnn): Conv2d(256, 256, kernel_size=(1, 1), stride=(1, 1), bias=False)
    )
    (w1): cnn1x1(
      (cnn): Conv2d(256, 256, kernel_size=(1, 1), stride=(1, 1))
    )
  )
  (fc): Linear(in_features=512, out_features=2, bias=True)
)
The number of parameters:  661598
The modes is: SGN
It is using GPU!
Train on 1369 samples, validate on 343 samples
0 0.001
Epoch-1    20 batches   loss 0.7891 (0.8434)    accu 68.750 (68.828)
Epoch-1   15.3s Train: loss 0.8352      accu 68.7500    Valid: loss 0.6136      accu 70.0000
Epoch 1: val_acc improved from -inf to 70.0000, saving model to ./results/Football/SGN/0_best.pth
…
